ml_model.pth (torch, 27346 bytes, 6 tensors)

net.0.weight f4 [64, 62]
000000 cd 86 2d 3e b5 d5 08 bf e0 81 f5 3b 22 f0 4d bf
       0.16945954 -0.5345109 0.007492289 -0.8044454
000010 84 3d 0c bf fd f5 92 be d1 72 98 3e dd ed 13 bf
       -0.54781365 -0.287033 0.29775098 -0.57784826
000020 29 c8 65 3e ff 87 66 be b9 aa c5 be 77 34 b0 be
       0.22439636 -0.22512816 -0.38606814 -0.34415027
000030 87 71 0a bf 11 39 b2 3d c2 da 94 bd 0a f9 05 3f
       -0.5407948 0.08702291 -0.07268287 0.5233313
000040 bc c0 dd 3e 15 a7 16 bf 6f 52 da 3c 73 a2 a0 be
       0.43311107 -0.58848697 0.026650636 -0.3137394
000050 91 52 97 be 92 04 0c 3f c5 49 89 3d fb 3f 5e be
       -0.2955518 0.54694474 0.067035235 -0.21704094
000060 65 d1 fc 3e 9a fe b6 be b7 66 01 bf ce a1 b7 bc
       0.49378505 -0.3574112 -0.50547355 -0.022416022
000070 a1 1d 91 3c 0a c3 94 be 26 61 55 bb 5e 3c de bd
       0.017714323 -0.29055053 -0.0032559126 -0.10851358
000080 fd ce 8f 3e fc bf e6 3e 47 ae 8e 3c 79 9c 6e be
       0.28087607 0.45068347 0.017417086 -0.23301877
000090 41 87 d9 bd b1 8b 60 3d c9 64 9c be ac d6 00 3d
       -0.10621501 0.05482072 -0.30545643 0.031454727
0000a0 c5 6b 72 be 80 42 e8 3e e8 96 13 be 11 b5 54 be
       -0.23673923 0.45363235 -0.14413035 -0.20772196
0000b0 af b7 9f be b3 b2 af 3d f2 15 40 3d d4 32 0e 3e
       -0.31194827 0.08579006 0.04689593 0.13886577
0000c0 ee 39 c0 3e 22 d1 88 be 09 92 41 be 29 5e 0b be
       0.37544197 -0.26722056 -0.18903364 -0.13610138
0000d0 6a 6f ff bd cb f4 33 be 1e 38 33 be 52 3e b8 bd
       -0.124724224 -0.1757385 -0.17501876 -0.08996262
0000e0 01 b5 57 3d 95 da 33 be cc 85 cc be 5d 1b 16 bf
       0.052662853 -0.17563851 -0.3994583 -0.58635503
0000f0 58 fb 9a 3e 96 5d ea 3e 3d 13 51 be c2 06 2c 3f
       0.30269885 0.45774525 -0.20417495 0.6719781
000100 79 95 40 bd b5 c3 3e 3f ce fb ea 3e be 9b e6 3e
       -0.04701755 0.74517375 0.45895237 0.45040697
000110 b4 45 9b be a3 16 07 3f 48 b6 94 be 9c f4 93 3e
       -0.30326617 0.52768916 -0.2904532 0.2889756
000120 a6 21 fd 3e 17 72 a8 3e b7 9c 04 3f 69 ea fa 3d
       0.49439734 0.32899544 0.5180163 0.122517414
000130 76 e9 0e 3e 32 ea 0a bf b4 c6 1d bf 85 6a 00 3f
       0.13956246 -0.54263604 -0.6163132 0.50162536
000140 54 2e 2c 3e 25 76 d7 3e 89 2d 06 3f bc cd 36 bf
       0.16814548 0.42082325 0.5241323 -0.71407676
000150 e0 0c 70 bd f8 9d ba 3e 1f ed 04 bf b0 3f bc 3e
       -0.05860603 0.36448646 -0.5192432 0.3676734
000160 b7 65 bb 3e 1b 7e af 3d 66 39 97 bc b6 07 94 3e
       0.3660104 0.085689746 -0.018459987 0.28912133
000170 bf a3 cc 3d 3b c8 0c 3e 1a eb 96 be db 72 c3 be
       0.099921696 0.13748257 -0.29476243 -0.38173565
000180 92 21 62 bd c7 c9 e5 3d 50 5f cc 3d 35 a7 ef bd
       -0.055207796 0.112201266 0.09979117 -0.11701814
000190 d1 70 9e 3e a9 74 4c be 68 ea b1 3e e2 2c c6 be
       0.30945447 -0.19966377 0.3474915 -0.38706118
0001a0 7d dc 6c 3e 3a 2d a4 3e 3f 8d 89 3e 7a 58 7e be
       0.23130985 0.32065755 0.26865575 -0.24838439
0001b0 c2 c4 06 3d f3 8f ad bd dc 70 9c be e1 71 cc 3e
       0.032902487 -0.08474722 -0.30554855 0.39930633
0001c0 1f 2f 80 3e e8 4f 0f 3e bc 9a ba 3d 1d 09 7c 3e
       0.2503595 0.13995326 0.091115445 0.24612851
0001d0 6f d6 90 3e e9 a2 cd bd 42 09 cf bd 6f d2 08 3e
       0.282886 -0.10040838 -0.10109188 0.13361524
0001e0 5a fa 99 3e 44 3e 01 3f 10 55 21 be ee 1c bf be
       0.30073816 0.50485635 -0.15755105 -0.3732676
0001f0 08 e6 a2 3c 3c 62 b0 bc 82 64 82 bd 84 6e 96 bd
       0.019885078 -0.021531217 -0.063668266 -0.07345298
000200 98 e9 9f 3d 30 2c bb bd bd 8c ea bd e8 a1 e9 3c
       0.07808226 -0.091392875 -0.11452625 0.028519586
000210 e0 6d a6 3c 66 ed 7f bd ea 57 c7 3d 80 65 e0 ba
       0.020316064 -0.06248226 0.09733565 -0.0017120093
000220 46 2a f7 3d c6 5d b9 bd e7 07 fb bd bc 39 73 3d
       0.1206861 -0.09051089 -0.122573666 0.05938123
000230 84 c1 b0 bd c0 78 15 3d 64 63 0d 3d 0c 70 54 3d
       -0.0863066 0.03649211 0.034518614 0.05186467
000240 7c 43 7e 3d fc 4c d6 3d a4 5a 30 bd 54 16 49 3d
       0.062076077 0.10463902 -0.04305519 0.04909356
000250 ef 07 c9 bd d0 39 05 bc 80 e2 dd ba a0 6f d3 3c
       -0.09815966 -0.008131459 -0.0016928464 0.025810063
000260 d2 2f 88 bd d0 f5 61 bd e0 e9 b9 3b 80 5a 37 bb
       -0.06649746 -0.055166066 0.005673632 -0.0027977526
000270 90 82 80 3c 68 dd da bc 42 51 b2 3d 45 8f e7 bd
       0.015687257 -0.026716903 0.08706905 -0.11306623
000280 9e 7b ac 3d b0 bd 8e 3c 06 87 98 bd ce f7 ca bd
       0.084220156 0.017424434 -0.07447629 -0.09910546
000290 08 de 0f 3d 74 06 8f bc ec 1c ee bd ce 28 87 bd
       0.035123855 -0.017459132 -0.1162661 -0.0659958
0002a0 11 fa e6 bd 24 bf 2e 3d 5a 3d e2 bd 0a 32 b1 bd
       -0.11278165 0.042662755 -0.11046858 -0.08652122
0002b0 f8 ea d2 3c 86 5d 98 bd c8 b0 6b 3d 8e 89 95 bd
       0.025746807 -0.07439713 0.05754164 -0.07301627
0002c0 e8 a9 89 3c 9b 02 83 bd e0 ec 51 bb 52 5a 4e bd
       0.01680465 -0.06396981 -0.0032032058 -0.050379105
0002d0 b4 12 9b 3d a2 a7 92 3d 66 bc 19 bd 42 36 dd bd
       0.07571927 0.0716088 -0.037533186 -0.108013645
0002e0 70 23 94 bc 28 4b c6 bc f9 c2 05 3f f1 66 2a bf
       -0.018083304 -0.02420576 0.5225063 -0.66563326
0002f0 c5 d0 f6 3d 77 8e 3c bf 9b 7c 18 bf 07 86 5a be
       0.120515384 -0.73654884 -0.5956513 -0.2134019
000300 fc c1 96 3e 20 cc 24 bf c4 e8 1d 3f 7c 70 07 bf
       0.29444873 -0.6437397 0.616833 -0.5290601
000310 ed b9 f6 be ee 4a eb be 0a be bb be a1 fe e5 3e
       -0.48188725 -0.45955604 -0.36668426 0.4492083
000320 6e 91 64 3d 58 bd 2f 3f 0a 98 9d 3d e3 d4 f1 be
       0.055802755 0.6864829 0.07695015 -0.47232732
000330 9e 65 ae be 81 59 72 be 44 6f e8 3e 02 9a 3f 3f
       -0.34061903 -0.23666956 0.4539739 0.7484437
000340 a0 ce 00 ba 46 3d 63 be 2e 1c 5f 3e 6f 59 02 3e
       -0.0004913602 -0.22191343 0.21788093 0.12729429
000350 ca 84 0e 3d 56 a3 a2 bc 76 d9 31 bd 8f 8e fe be
       0.034794606 -0.019853275 -0.043420278 -0.4971814
000360 98 6c 92 3e da 07 81 be cb 3f 60 3e 76 c0 e6 3e
       0.28598475 -0.25201303 0.21899335 0.4506871
000370 fb 6a 7e 3e 49 44 6c bc 2c 6c fe bd 29 48 b6 3e
       0.24845497 -0.014420577 -0.12422976 0.3560193
000380 81 d8 52 3d f4 d8 8e 3e 95 74 98 be 87 1e 14 3f
       0.051476005 0.27899897 -0.29776445 0.5785908
000390 7f 05 7a 3e e4 cb bf bd 32 f9 ad be 87 8d 13 3b
       0.24416159 -0.09365061 -0.33979183 0.0022514777
0003a0 a3 10 2a be f2 a9 be bd aa d3 d4 3e ab 4b 8d 3d
       -0.16607909 -0.09309758 0.41567737 0.06899198
0003b0 a8 ae f3 3e 46 bf cb be 62 4c 10 be 3e 4f 78 be
       0.4759419 -0.39794368 -0.14091638 -0.24248978
0003c0 e8 df 7f be 74 d4 2b 3f 10 33 9b 3e 08 39 96 be
       -0.24987757 0.6712105 0.30312395 -0.29340386
0003d0 cd c2 1a bf 78 e7 f7 be 63 d7 00 be d8 68 52 3e
       -0.6045349 -0.48418784 -0.12582164 0.20547807
0003e0 14 78 8d be 63 32 1b 3f bb d9 0e be 39 aa 4d 3f
       -0.27630675 0.6062376 -0.13950245 0.80337864
0003f0 93 50 ef 3e f5 92 bf 3e db 55 ad be 0a 76 1d 3f
       0.4674116 0.37416807 -0.33854565 0.6150824

net.0.bias f4 [64]
000000 5c 92 52 3e 6a 4f b1 3d 92 1d 98 bd c7 54 db 3c
       0.20563644 0.08657725 -0.07427515 0.026773823
000010 16 eb 31 3e e1 5e 6d 3d bc 29 fb bd 2b 3f e0 bc
       0.17374834 0.05795181 -0.122638196 -0.02737387
000020 1f 39 36 3e 28 d2 f4 bd ee fc 6b bd f0 5b 41 3e
       0.17795227 -0.119541466 -0.05761426 0.18882728
000030 0a a4 80 3c 81 cd b1 3d b4 bd 94 bc 62 81 0a 3d
       0.01570322 0.08681775 -0.018156864 0.033814795
000040 8c 19 93 3e 82 21 6d 3e 8a 94 35 3e 06 9a d6 bd
       0.28730428 0.23157313 0.17732444 -0.104785964
000050 5e dd 31 bd 02 30 8b 3e 9c 56 68 3e bc a9 5f bd
       -0.043424003 0.27185065 0.22689289 -0.05460523
000060 5f c5 74 bd c3 64 1d 3d 0c e7 d5 3e 03 fe e6 bd
       -0.05975854 0.038426172 0.41777837 -0.11278918
000070 64 e6 72 3e 21 0f 80 3d bc f9 ac bd e8 9f a8 3d
       0.237207 0.062528856 -0.084460706 0.08233625
000080 54 8e 67 3e d2 73 24 3a 38 4f e2 bd 42 21 83 3c
       0.22612888 0.0006273362 -0.11050266 0.01600707
000090 21 7f 4c 3d 4b 3c 91 3c 8f cc d3 bd a8 ad 08 bd
       0.049925927 0.017728945 -0.10341751 -0.033368737
0000a0 ae f8 23 3e 72 2c 4b 3e 94 86 83 bd fa 90 19 3d
       0.16012833 0.19841173 -0.06422153 0.037491776
0000b0 15 37 90 3e f1 71 3b 3e 4c b3 ec bd 54 25 37 3d
       0.28167024 0.18305184 -0.11557636 0.044713333
0000c0 8e 6e f4 bd fc 45 42 3d 07 8d 42 3e bc 7e a2 bd
       -0.11935149 0.047430024 0.1899911 -0.07934329
0000d0 db 53 41 3e c2 73 ed 3d a2 01 5a bd f4 39 4c 3e
       0.18879645 0.11594345 -0.053224213 0.19943982
0000e0 38 3a 0e 3e 8f 0b dd bc c0 ba 74 3d 98 f9 39 3e
       0.13889396 -0.02698305 0.05974841 0.18161619
0000f0 f3 3d 23 bd ae 8a 71 3e 0d d0 1f bd 76 3a e5 3d
       -0.039854 0.23588058 -0.039016772 0.11192791

net.2.weight f4 [32, 64]
000000 fa 04 d6 be 36 49 9c 3e 98 9c a0 3c 6a 05 24 bf
       -0.41800672 0.30524606 0.01960592 -0.6407076
000010 ec c0 a6 3e 45 02 d0 be e8 e9 c1 3d b7 e4 50 3f
       0.32569063 -0.40626732 0.09468442 0.8159899
000020 26 fb f5 3e 28 39 67 bd 5a 1a 85 bd b1 05 c6 be
       0.48043174 -0.056450993 -0.06499167 -0.38676217
000030 1c 5c 2c 3f d9 ed dd be 3d ac 68 3f 4a 55 58 3f
       0.6732805 -0.43345526 0.90887815 0.8450514
000040 39 3c ca 3e 4e 93 f4 be bc 3e 05 3f b8 7c c3 3c
       0.3949907 -0.47768635 0.5204885 0.023863181
000050 6a f9 c4 3d 00 49 b8 be 87 75 eb 3e ec 8d 54 bd
       0.096178845 -0.35993195 0.45988104 -0.05189316
000060 aa f9 97 3d b0 d1 d4 be 41 e1 39 be b8 e5 01 bd
       0.074206665 -0.4156623 -0.18152334 -0.031713217
000070 03 03 f8 3e 12 74 e2 be 56 66 d3 3d 6e 60 08 bf
       0.48439798 -0.4422918 0.103222534 -0.5327214
000080 9b 5b 72 3e 13 87 53 bf 6e 73 8d bd 7e 61 1a bf
       0.23667757 -0.8262798 -0.06906782 -0.6030501
000090 d8 1e 09 3f dc f7 02 bf 24 f4 24 3d 5d 19 57 3f
       0.5356269 -0.51159453 0.040271893 0.84023076
0000a0 b6 63 01 bf 42 6b b9 be 19 32 cc 3d 24 c3 f1 3e
       -0.5054277 -0.36214644 0.09970493 0.47219193
0000b0 39 9a fa 3e 8d 5d f8 3e dc cd bc bd 33 cc 18 3f
       0.48945788 0.48508874 -0.09218952 0.59686583
0000c0 8a 44 f2 3d 4f cb fc 3e cb ba f1 be 2a f2 bb 3d
       0.11829479 0.49373862 -0.47212824 0.091770485
0000d0 e0 ce ed 3e e1 ae cc be 38 7d 9e 3c d8 ca c0 be
       0.46446896 -0.39977172 0.019346818 -0.37654757
0000e0 35 84 d3 3e f2 f9 3b 3f 91 67 03 bf 76 76 ef 3e
       0.41311803 0.7342826 -0.51329905 0.46770066
0000f0 ca 0f 53 3f 4d 63 ff 3e 09 16 41 3f f0 21 b3 be
       0.8244597 0.49880448 0.7542425 -0.3498683
000100 1e ef 08 3f 86 19 f6 be 7c 49 ff bd b9 22 f7 3e
       0.53489864 -0.48066348 -0.12465188 0.4826868
000110 c2 ba df be 12 26 00 3f d8 e9 28 3d 42 e1 50 bf
       -0.43697172 0.5005809 0.041238636 -0.81593716
000120 95 36 be be 00 44 a3 3c 04 22 49 3d b6 d4 0d 3f
       -0.37151018 0.019929886 0.049104705 0.55402696
000130 5f de 51 bf a2 fe f8 3e 9e 3c 40 bf 0b 17 47 bf
       -0.81979936 0.4863177 -0.75092494 -0.77769536
000140 8e 12 ab be 9e df e7 3e 77 06 ef be cc 36 02 3d
       -0.33412594 0.45287794 -0.4668462 0.03179054
000150 e4 70 f4 3d 6c 64 c8 3e 71 88 05 bf ae 90 f3 3d
       0.11935595 0.39139116 -0.5216132 0.1189283
000160 95 2d c2 bd f0 89 0a 3f 2a 00 0d 3f 48 ef 9d 3c
       -0.0948135 0.54116726 0.55078375 0.019279137
000170 52 45 dc be 45 ee ee 3e 90 e6 6a 3c c3 0a 0a 3f
       -0.43021637 0.4666616 0.014337197 0.5392267
000180 4d 77 d0 be 8a 0d 31 3f 7c 51 ee 3d ca c5 39 3f
       -0.4071602 0.69161284 0.11636636 0.7256743
000190 c4 52 f8 be d3 4f ba 3e 20 ae 8c bc 7f b2 45 bf
       -0.48500645 0.36389026 -0.017172873 -0.7722549
0001a0 94 ea a9 3e 3e f8 00 3f a9 2e 00 be 41 a3 14 bf
       0.3318678 0.5037879 -0.125178 -0.58061606
0001b0 0a 88 be be 4d 11 d3 be 6c 84 63 bd 08 e2 22 bf
       -0.37213165 -0.41224137 -0.05554621 -0.63626146
0001c0 4c 07 b7 3d 44 58 00 bf a4 3b f4 3e 72 55 d1 bd
       0.08936939 -0.5013468 0.47701752 -0.102213755
0001d0 7c 0d bf be 54 4d fe 3e f5 84 39 3d 74 e4 05 3f
       -0.37314975 0.49668372 0.045292813 0.52301717
0001e0 62 5e be be 64 02 1f bf 12 48 c4 3e eb e3 12 bf
       -0.37181383 -0.6211302 0.38336235 -0.57379025
0001f0 8a 05 6f bf bf 2b d7 be d1 29 5e bf a3 ee df 3e
       -0.93367827 -0.42025563 -0.86782557 0.43736753
000200 5c 67 00 3f e7 31 e7 be 40 35 f4 3d 80 8a e7 3e
       0.50157714 -0.4515526 0.11924219 0.45222855
000210 62 57 9f be 6b f8 dd 3e b0 05 e8 bc 16 46 4b bf
       -0.31121355 0.4335359 -0.028323025 -0.7940382
000220 8d fc b6 be 28 c8 64 bd a2 34 f7 bd 26 4e da 3e
       -0.35739556 -0.055854946 -0.12070586 0.42637748
000230 80 97 5b bf e9 50 d0 3e f9 28 6a bf b0 cb 2e bf
       -0.85778046 0.4068673 -0.9146877 -0.6827955
000240 8b b5 ef be f0 51 ff 3e 0c 6a b1 be 20 88 f7 bc
       -0.46818194 0.498672 -0.3465122 -0.030216277
000250 4c a8 2d bd 90 2c 09 3f c9 22 b4 be 6c 92 06 bd
       -0.04239683 0.5358362 -0.3518279 -0.032854483
000260 8d ce f3 bd d3 a8 fb 3e 9f 87 00 3f 90 4b f6 3d
       -0.11904631 0.4915224 0.5020694 0.12026131
000270 27 53 ac be af 33 09 3f e4 1a c2 bd 97 48 e6 3e
       -0.3365719 0.5359449 -0.09477785 0.44977257
000280 67 e4 e0 be 57 60 2c 3f aa 9a a0 3d f6 37 30 3f
       -0.43924257 0.673345 0.07842 0.6883539
000290 44 8a 21 bf 3e d1 18 3f 60 6c d4 bd 1c a0 32 bf
       -0.631016 0.5969428 -0.103722334 -0.6977556
0002a0 e9 b9 c7 3e 39 6e b3 3e 34 42 0d 3d 3c a7 2f bf
       0.39009026 0.3504503 0.034486964 -0.68614554
0002b0 b7 ad 9a be 6f b3 0f bf f4 72 c4 3d c7 0c 03 bf
       -0.3021066 -0.5613317 0.09592238 -0.5119137
0002c0 28 5d 3c bd d6 39 e2 be 04 e4 fc 3e 48 ba f0 3c
       -0.04598728 -0.4418475 0.49392712 0.0293857
0002d0 e2 dd e0 be e5 79 da 3e db f2 ed bd 51 5d d1 3e
       -0.43919283 0.42671123 -0.11618587 0.40891507
0002e0 5e 08 07 bf 44 52 48 bf 9c b7 da 3e d5 33 0b bf
       -0.5274714 -0.7825053 0.42718208 -0.54375964
0002f0 b1 ce 59 bf 84 ac d4 be 4d 77 3a bf 31 81 0c 3f
       -0.8508101 -0.4153787 -0.7283829 0.5488463
000300 7d 7b ce be 2e b3 f4 3e ea 3a c5 bd 0a ea 1f bf
       -0.4032859 0.47792953 -0.096303776 -0.6246649
000310 d9 0e 07 3f e8 b7 bd be 00 ab c8 bc c0 ad 46 3f
       0.5275703 -0.37054372 -0.024495602 0.7760887
000320 fb 06 08 3f 50 43 18 bc 70 bf f6 3c 38 f1 f2 be
       0.5313565 -0.009293392 0.030120581 -0.4744966
000330 dd c6 3c 3f 87 fa ef be ec 6f 36 3f ad 6a 3e 3f
       0.7374094 -0.46870825 0.7126453 0.74381524
000340 85 ce 00 3f ff 17 d6 be 5e f9 08 3f e0 53 92 bb
       0.50315124 -0.41815183 0.53505504 -0.004465565
000350 18 27 a7 3d 76 a2 e3 be 0a b7 e5 3e 50 f7 8b bc
       0.081617534 -0.44459885 0.4486621 -0.017085701
000360 26 be e5 3d c0 17 c6 be 88 3e 0c be 48 53 2c 3d
       0.112179086 -0.38689995 -0.13695729 0.04207161
000370 42 e5 03 3f 68 a8 f9 be 32 c7 f4 bd 84 4d 0d bf
       0.51521695 -0.48761296 -0.11952056 -0.55196404
000380 d0 a9 00 3f d5 ec 26 bf 94 de cd 3d 91 88 28 bf
       0.50259113 -0.65205127 0.10052219 -0.65833384
000390 5c b2 09 3f 54 1d 12 bf 7c 2a a5 3d a6 04 57 3f
       0.5378778 -0.57076 0.08064744 0.8399147
0003a0 da d4 cf be a1 3d 05 bf 0f 7a 92 3d 62 c2 29 3f
       -0.4059208 -0.52047163 0.07152187 0.6631223
0003b0 6e a6 cd 3e 6a 08 0a 3f e6 bf eb bd 36 08 19 3f
       0.40166038 0.5391909 -0.11511211 0.59778154
0003c0 48 8d 6a bd 92 4e b5 3e c0 6a b1 be e0 21 88 bd
       -0.057263643 0.35411507 -0.34651756 -0.06647086
0003d0 04 6e d0 3e 9b 27 04 bf 8d 41 ed 3c 6f 02 b5 be
       0.40708935 -0.51622933 0.028961921 -0.3535342
0003e0 07 d4 f7 3e cb 44 1c 3f 1b 59 10 bf 14 04 0e 3f
       0.48403952 0.6104247 -0.56385964 0.5547497
0003f0 d8 fa 3a 3f a3 4b 0c 3f 8a ec 39 3f 6b 36 e5 be
       0.7303901 0.5480291 0.72626555 -0.4476808

net.2.bias f4 [32]
000000 a7 a4 7e 3e 45 5f 2c 3e 79 0f 50 3e 70 90 5e 3e
       0.24867497 0.16833217 0.20318402 0.21734786
000010 39 c0 c2 3d 6a a8 56 3e d0 0b 49 3e 1a 2c 81 3e
       0.0950932 0.20962682 0.19633412 0.2522896
000020 c6 53 c4 bd 81 fa 30 3d 58 19 18 bd fa 62 be bc
       -0.09586291 0.04320765 -0.037133545 -0.023240555
000030 50 d5 a4 bd b1 f7 3c 3e d1 b0 74 3e dd ae 72 3e
       -0.08048499 0.18453862 0.23895575 0.23699518
000040 f2 ea 53 3e fe 81 ff bd 4d bc 74 3e 58 76 33 3e
       0.20695093 -0.12475966 0.23899956 0.17525613
000050 5c 36 de bd 72 51 82 bd a3 9b 56 3e f7 7f 51 3d
       -0.10850212 -0.06363191 0.20957808 0.051147427
000060 fb 83 80 bd fa c3 17 bc c3 12 de bd 88 42 1a 3e
       -0.06275173 -0.009263033 -0.10843422 0.15064442
000070 60 76 41 bc 77 e5 82 3e 03 cf 9a bc 6b 38 0a 3e
       -0.011808008 0.25565693 -0.018897539 0.13498084

net.4.weight f4 [2, 32]
000000 1b ca 17 3f 91 2f da be 8f f7 06 bf 70 ce 16 3f
       0.59292763 -0.42614415 -0.52721494 0.5890875
000010 ee 7a 22 3f a6 5e 0e bf 3a 22 25 3f b9 92 0b bf
       0.63468826 -0.5561317 0.6450535 -0.54520756
000020 fc fe b8 bd 92 83 3d 3f d4 d3 51 bd d4 e5 88 bd
       -0.090330094 0.74028885 -0.051227406 -0.06684461
000030 08 86 d4 bd e9 46 17 bf 49 ae 11 3f ed cd 37 bf
       -0.10377127 -0.59092575 0.56906563 -0.7179859
000040 85 96 26 3f 93 16 1d 3e 09 f8 15 3f a0 3e 09 3f
       0.65073425 0.15340643 0.58581597 0.53611183
000050 9e 91 f1 3d 67 37 da bd d8 ec 29 bf 05 6b 7f 3c
       0.117953524 -0.106550984 -0.6637702 0.01558948
000060 f7 a3 1b 3d cf cd 2e 3c b2 a5 c9 3d 7a 15 0b bf
       0.037998166 0.010669186 0.09846057 -0.54329646
000070 b6 44 91 3d 7d ed 01 bf c8 92 f8 bb 74 96 37 bf
       0.07093184 -0.50753003 -0.007585857 -0.7171395
000080 85 09 0c bf 88 2a 2e 3f 5d 2b 13 3f 82 98 ca be
       -0.54702026 0.6803365 0.5748804 -0.3956948
000090 7f fc 01 bf 8e 8e 02 3f 04 66 f8 be fd f9 25 3f
       -0.50775903 0.5099877 -0.48515332 0.64834577
0000a0 1a 20 c9 3d 1f 6e 39 bf ca 17 c2 3d 3e 53 eb bc
       0.09820576 -0.72433656 0.09477194 -0.028726216
0000b0 f7 19 13 be 38 b8 02 3f b0 7a 1e bf 0d 6a 2f 3f
       -0.14365374 0.51062346 -0.61905956 0.68521196
0000c0 92 f2 e0 be 40 ea 91 bd 80 85 0c bf 77 9b 31 bf
       -0.43935066 -0.07124758 -0.54891205 -0.69377846
0000d0 01 8b 09 3e 73 ff 99 bd 17 49 31 3f 1d 34 fe ba
       0.13431932 -0.07519426 0.6925215 -0.0019394193
0000e0 3f 02 ca bd 81 bf 06 bd 38 cb 8c 3c 9a 2d 26 3f
       -0.0986371 -0.032897476 0.017186746 0.6491333
0000f0 f5 24 04 3e 36 81 27 3f 23 43 0b be d3 1e 11 3f
       0.12904723 0.65431535 -0.1359983 0.5668766

net.4.bias f4 [2]
000000 b0 24 12 3e 67 ec 9a 3c
       0.14271808 0.018911554
